exports/best_model.pt (torch, 247650 bytes, 20 tensors)

network.0.weight f4 [256, 65]
-0.32352713 -0.14573775 -0.086389355 0.12895116 -0.20614159 0.4305948 0.071499884 -0.023234693
0.09702379 0.0028075017 -0.20298803 0.18313496 0.121422894 0.13944179 0.33912447 -0.17395514
-0.11427086 0.017213421 0.037966117 -0.08483406 -0.21703508 0.17680968 0.10239924 -0.07094722
0.098877884 -0.020202762 0.028264593 -0.028440233 0.19133906 0.15024981 0.012651297 0.05082791
-0.1243042 0.057602126 0.028046872 -0.027044296 -0.07626785 -0.0072241435 0.044733234 -0.07597704
-0.07597701 0.040308587 -0.007335418 -0.058332432 -0.1014199 -0.0254456 -0.13140284 -0.045124825
0.012211936 -0.020452987 -0.07367124 -0.009213757 0.027355522 -0.02145513 -0.1413451 -0.34920397
-0.2690242 0.04733842 0.08277571 0.101662084 0.28886148 -0.03975231 -0.1560791 -0.12505291
-0.030081296 0.1192494 -0.0711339 -0.12275911 0.22260566 0.041688636 -0.27965432 0.10843856
0.006516303 -0.14261791 -0.25361302 0.19915968 -0.13030203 -0.40888235 0.078247234 -0.09839869
0.07154697 0.13470747 0.032469176 -0.07184888 0.024473112 0.11884352 -0.15134567 -0.025767446
0.04658573 -0.1413302 -0.022885084 0.18844843 -0.2000363 0.024104701 -0.099181704 0.24053822
-0.08724773 0.1933339 -0.12454696 -0.059268344 -0.010379822 -0.008999106 -0.10238582 0.12408571
0.01894498 0.01894498 0.084488176 0.06963152 -0.12024614 -0.05911192 -0.027720297 -0.003207735
-0.0039449413 -0.0002019313 -0.0010655394 0.06282068 -0.01036237 -0.068661444 -0.06437493 -0.021552885
0.30627015 0.106812365 0.17851865 -0.12836169 -0.25848025 -0.21988347 -0.21336402 -0.15105227
-0.00137853 -0.083718374 0.22348624 0.018081514 0.0669269 0.024246763 -0.028201137 0.30465552
0.048574284 0.039022654 0.08671184 0.038465478 -0.33876023 0.17911267 0.20970613 0.1601231
-0.121102214 0.13596459 -0.035658464 -0.035380997 0.059324566 -0.099933654 -0.32870284 0.15735297
0.12582543 -0.042667296 0.09663572 -0.066882245 -0.00690499 0.0065915487 0.056432307 0.08819976
0.14953783 -0.041742954 -0.121476315 0.04229345 0.018762365 0.0037309697 -0.033737194 -0.22879933
0.26222485 -0.0125943655 -0.0125943655 0.076147296 0.044589214 -0.065828644 -0.12353915 0.09839448
-0.16921638 -0.042856306 0.026017645 -0.013664439 -0.04220945 -0.13403618 0.1944572 0.013315377
-0.1689236 -0.33234823 -0.17114364 0.12741035 0.188856 0.16062975 0.07026593 -0.1142652
-0.04211771 -0.19696935 -0.10789623 -0.50190514 0.016230684 -0.07841407 -0.048750803 0.051510505
-0.12894942 -0.027051171 -0.1536266 0.008387624 0.090555884 0.016621858 0.24149424 0.08195146
-0.10636105 0.26400656 0.014032672 -0.39471617 0.065776974 -0.023270827 -0.04527626 0.031500254
0.103093795 -0.097311415 -0.016997922 0.0074299844 0.23827156 0.15777455 -0.20666972 -0.123657055
0.021613915 0.16672897 0.6677605 0.006591551 0.0067180316 0.016229449 -0.035182107 -0.024506457
0.042080946 -0.038029604 -0.012784644 -0.012785221 -0.04763081 0.04969007 0.050186943 0.050847832
0.02440844 -0.013294098 0.011473129 -0.045101732 -0.024099726 0.040750198 -0.0502555 -0.025103442
0.018175662 -0.0025090019 -0.18415464 -0.11461442 -0.0664323 -0.010233881 0.0800677 -0.027586803
00000000: 59a5 a5be 473c 15be e7ec b0bd c60b 043e
00000010: c816 53be ec76 dc3e 886e 923d af56 bebc
00000020: 69b4 c63d 10fe 373b 18dc 4fbe bb87 3b3e
00000030: 91ac f83d d4c9 0e3e b9a1 ad3e 4c21 32be
00000040: d706 eabd 2903 8d3c 5c82 1b3d 7bbd adbd
00000050: 723e 5ebe 990d 353e b1b6 d13d c74c 91bd
00000060: 7d80 ca3d 4380 a5bc 268b e73c 7efb e8bc
00000070: 63ee 433e 16db 193e 6347 4f3c ed30 503d
00000080: 3393 febd 35f0 6b3d 8ec2 e53c 008c ddbc
00000090: 5232 9cbd 82b8 ecbb 323a 373d da99 9bbd
000000a0: d699 9bbd 9e1a 253d f25d f0bb fded 6ebd
000000b0: 3db5 cfbd 4a73 d0bc 778e 06be cfd4 38bd
000000c0: 9214 483c 068d a7bc f2e0 96bd 4cf5 16bc
000000d0: b018 e03c abc2 afbc c5bc 10be ddca b2be
000000e0: 8abd 89be eee5 413d 5086 a93d 3634 d03d
000000f0: a7e5 933e 51d3 22bd 33d3 1fbe df0d 00be
00000100: 0d6d f6bc 0839 f43d a6ae 91bd 2169 fbbd
00000110: bdf2 633e b4c1 2a3d da2e 8fbe 0915 de3d
00000120: b686 d53b 6e0a 12be 91d9 81be 84f0 4b3e
00000130: e56d 05be 0759 d1be 1640 a03d 4185 c9bd
00000140: 3887 923d c1f0 093e 66fe 043d 8125 93bd
00000150: d67b c83c 3b64 f33d 5cfa 1abe 4016 d3bc
00000160: aed0 3e3d ddb8 10be 8079 bbbc a0f8 403e
00000170: 51d6 4cbe 3977 c53c c71f cbbd a74f 763e
00000180: f0ae b2bd 52f9 453e 7a12 ffbd 5dc3 72bd
00000190: 2110 2abc fc70 13bc a8af d1bd a620 fe3d
000001a0: 8132 9b3c 8132 9b3c 2308 ad3d f89a 8e3d
000001b0: 9c43 f6bd 571f 72bd ad15 e3bc dd38 52bb
000001c0: 9144 81bb 85bd 53b9 92a9 8bba 21a8 803d
000001d0: eec6 29bc 5f9e 8cbd 01d7 83bd ad8f b0bc
000001e0: 71cf 9c3e 71c0 da3d 98cd 363e 3f71 03be
000001f0: 8657 84be 2229 61be 197c 5abe 72ad 1abe
00000200: cbaf b4ba 8a74 abbd 94d9 643e af1f 943c
00000210: f810 893d 26a1 c63c 1206 e7bc cffb 9b3e
00000220: d4f5 463d 38d6 1f3d fa95 b13d fa8d 1d3d
00000230: fb71 adbe 5069 373e 34bd 563e 4ff7 233e
00000240: 7004 f8bd 4d3a 0b3e 9c0e 12bd aaeb 10bd
00000250: 51fe 723d 04aa ccbd bd4b a8be 2321 213e
00000260: 62d8 003e e7c3 2ebd f3e8 c53d 8ff9 88bd
00000270: 4143 e2bb ebfd d73b 9025 673d 13a2 b43d
00000280: 7220 193e a9fa 2abd 93c8 f8bd e63b 2d3d
00000290: 88b3 993c 4983 743b 0330 0abd 5f4a 6abe
000002a0: 5642 863e 9958 4ebc 9958 4ebc 1df3 9b3d
000002b0: 2ea3 363d 2bd1 86bd 1802 fdbd 0c83 c93d
000002c0: 0f47 2dbe 188a 2fbd f522 d53c d0e0 5fbc
000002d0: d1e3 2cbd c840 09be ca1f 473e bd28 5a3c
000002e0: 4ffa 2cbe 8c29 aabe 4740 2fbe dc77 023e
000002f0: 7863 413e 207c 243e 95e7 8f3d e003 eabd
00000300: 9f83 2cbd 55b2 49be b3f8 dcbd db7c 00bf
00000310: 36f6 843c 8e97 a0bd ecae 47bd aefc 523d
00000320: 510b 04be 6b9a ddbc 4b50 1dbe 3f6c 093c
00000330: 5d75 b93d 902a 883c 444a 773e 2bd6 a73d
00000340: d2d3 d9bd de2b 873e 4be9 653c 3d18 cabe
00000350: 14b6 863d 76a2 bebc 9973 39bd 6906 013d
00000360: d722 d33d 354b c7bd 3a3f 8bbc 3a77 f33b
00000370: 76fd 733e a78f 213e 3aa1 53be e93f fdbd
00000380: aa0f b13c 00bb 2a3e 5af2 2a3f f0fd d73b
00000390: ef22 dc3b 9ff3 843c 1d1b 10bd c4c1 c8bc
000003a0: 125d 2c3d eec4 1bbd af76 51bc 1b79 51bc
000003b0: 8618 43bd d187 4b3d d390 4d3d d145 503d
000003c0: 35f4 c73c 7dcf 59bc caf9 3b3c 98bc 38bd
000003d0: ca6c c5bc aee9 263d b6d8 4dbd bca5 cdbc
000003e0: 20e5 943c 116e 24bb 0993 3cbe f7ba eabd
000003f0: a80d 88bd 02ac 27bc 89fa a33d b8fd e1bc

network.0.bias f4 [256]
1.6744763e-05 -1.0469774e-05 -3.833183e-06 2.7163258e-06 4.8964084e-06 5.2982314e-06 2.727309e-05 -1.44543e-05
-3.2007967e-05 2.0596008e-06 7.912057e-06 3.021749e-06 -3.0778032e-05 -2.1063921e-05 -4.7653033e-05 -8.524997e-06
-3.3479897e-05 -6.353028e-06 -1.1124487e-05 -4.1929554e-05 1.3046301e-05 -1.4806287e-05 3.186931e-05 1.6841532e-05
-1.2478747e-05 -1.3147103e-05 8.797847e-06 -2.2155373e-05 -1.3002487e-05 -5.698493e-06 1.0383352e-05 1.6073962e-05
-8.770858e-06 4.8387075e-05 -1.5415948e-05 -4.1818166e-06 1.2557052e-05 2.0954672e-06 -9.457285e-06 -3.4385357e-06
-2.3227318e-05 -4.067736e-05 1.7870703e-05 -3.852977e-06 3.9768365e-05 2.1022183e-06 6.3762884e-05 7.0511455e-06
1.0805899e-05 3.6589506e-06 -6.435784e-07 2.4935738e-05 3.9941515e-06 2.5961972e-05 1.7514329e-06 2.9907023e-05
-1.3741619e-05 -1.2625258e-05 -7.4849504e-06 -1.6229176e-05 1.1091835e-05 2.0258647e-06 1.8479372e-05 4.741168e-06
4.050579e-06 -3.1395832e-06 7.511686e-05 2.2108348e-05 6.803912e-06 -2.940279e-06 -1.8219283e-06 1.1216837e-06
9.1527e-06 2.250727e-05 -2.7110514e-06 -5.630903e-06 8.745484e-06 4.9481056e-05 1.168077e-05 8.164772e-06
2.8596185e-06 -3.2234286e-05 -1.1964285e-06 1.3222397e-05 -8.499755e-06 1.1662702e-05 -1.0342639e-05 -9.856876e-06
1.9846e-06 2.1385524e-05 2.0296611e-05 4.6273763e-06 4.2838756e-06 -1.1073263e-05 4.1437033e-05 2.2819502e-05
3.905992e-06 -5.670539e-06 -1.6976166e-05 3.989872e-05 1.8208628e-05 -3.8961938e-05 8.545695e-06 1.6930586e-05
-4.6290133e-06 7.5250017e-07 -4.5818557e-05 -1.7214059e-06 -5.043596e-06 4.8180773e-06 9.115181e-06 8.952803e-06
-8.023102e-06 -2.107897e-05 4.6591955e-05 1.84181e-05 4.349469e-06 3.1598287e-05 -4.5592137e-06 -4.0378916e-05
-8.820227e-06 3.1231102e-05 2.462235e-06 1.4024971e-06 1.9899364e-05 3.896016e-06 -3.0376395e-05 1.1524234e-05
1.8570381e-05 1.0292726e-05 8.877245e-07 -5.4221255e-06 -1.6858536e-05 3.4496337e-05 -2.6974603e-06 -5.2365513e-06
8.42586e-05 -1.5740383e-05 -1.3716464e-05 -1.0719715e-05 1.3009492e-05 -6.490836e-06 -5.6355675e-06 -1.3256888e-05
-1.041973e-05 1.0895515e-06 -1.6669681e-05 -2.1678357e-05 -1.1627201e-05 6.5755894e-06 1.9743185e-05 -8.851141e-06
-8.056227e-06 -2.0905369e-05 4.415071e-05 -5.9044805e-06 -1.0170683e-05 -2.0778928e-06 2.8734363e-05 1.6567743e-05
-1.6916998e-05 -1.0926039e-05 -8.390943e-06 -2.1115722e-05 -7.6181414e-06 2.2525493e-05 -1.0184751e-06 1.4617467e-05
-3.4423074e-06 -3.2537522e-05 -2.444575e-06 1.6003507e-05 -6.096904e-06 2.4568026e-05 -2.6128887e-06 4.5043435e-05
3.1043796e-06 1.4596624e-05 1.8806018e-05 2.515818e-05 1.5017686e-05 -1.902874e-05 -4.5197785e-06 4.141924e-06
-1.0902351e-05 1.7240465e-05 4.334035e-06 -3.435216e-06 2.8214537e-05 -2.5784411e-05 -1.0660299e-06 8.52067e-06
2.6400856e-05 -5.2400894e-05 -1.6701153e-05 5.876433e-06 -5.3897716e-06 -2.4019686e-05 1.3110149e-06 1.24196495e-05
1.635633e-06 1.336714e-05 6.5870717e-07 -2.7472777e-06 2.6617723e-05 1.7801824e-06 -4.833343e-06 1.57111e-05
1.4220637e-06 -2.8875187e-05 1.0470542e-05 1.5110766e-05 -1.6491755e-06 1.9113443e-06 -3.3150656e-05 -4.871206e-05
1.5333026e-05 9.694126e-06 1.6307864e-05 9.394213e-06 -7.814819e-06 -9.539457e-06 -3.6365844e-05 -2.1366724e-05
3.008787e-06 2.7064676e-05 -7.421502e-06 7.1815784e-06 1.3731652e-05 1.0883006e-05 3.847327e-05 -6.8558984e-06
-9.436498e-06 -1.1790273e-05 -4.5582777e-07 3.148033e-06 5.9133886e-06 7.0231745e-06 2.4397217e-05 -5.7747425e-09
-0.00010209481 -2.2169672e-05 -1.5682172e-06 -5.955785e-05 1.6336026e-05 -1.3134085e-05 -1.4298089e-06 -1.0482828e-06
-1.191415e-05 2.4004323e-06 -7.4827694e-06 2.4245577e-05 -2.3681536e-05 -4.4762615e-05 -1.0000768e-06 2.320662e-05
00000000: 1b77 8c37 56a7 2fb7 cb9e 80b6 1f4a 3636
00000010: d44b a436 76c7 b136 84c8 e437 bf80 72b7
00000020: 4b40 06b8 ac37 0a36 07be 0437 41c9 4a36
00000030: a917 01b8 6db2 b0b7 0edf 47b8 9506 0fb7
00000040: c46c 0cb8 182c d5b6 4fa3 3ab7 84dd 2fb8
00000050: 70e1 5a37 8568 78b7 69ab 0538 ea46 8d37
00000060: cf5b 51b7 6192 5cb7 779a 1337 4dda b9b7
00000070: 4225 5ab7 af35 bfb6 2834 2e37 92d6 8637
00000080: 8c26 13b7 3af3 4a38 7f51 81b7 8851 8cb6
00000090: 21ac 5237 da9f 0c36 bbaa 1eb7 98c1 66b6
000000a0: 49d8 c2b7 fc9c 2ab8 0be9 9537 d248 81b6
000000b0: f5cc 2638 d613 0d36 70b8 8538 e198 ec36
000000c0: fc4a 3537 4b8c 7536 5fc2 2cb5 172d d137
000000d0: 8005 8636 e9c8 d937 c712 eb35 d8e0 fa37
000000e0: ce8b 66b7 12d1 53b7 3c27 fbb6 e423 88b7
000000f0: 1217 3a37 17f4 0736 2604 9b37 5316 9f36
00000100: 35ea 8736 a1b1 52b6 0f88 9d38 5175 b937
00000110: 294d e436 9c51 45b6 fb88 f4b5 c28c 9635
00000120: 8c8e 1937 ffcd bc37 82ef 35b6 17f1 bcb6
00000130: 91b9 1237 e189 4f38 86f8 4337 6efb 0837
00000140: dfe7 3f36 4d33 07b8 f894 a0b5 c3d5 5d37
00000150: 2b9a 0eb7 ecaa 4337 4c85 2db7 f65e 25b7
00000160: 2b2f 0536 1065 b337 a442 aa37 dc44 9b36
00000170: 36be 8f36 4dc7 39b7 adcc 2d38 826c bf37
00000180: 3710 8336 8f45 beb6 0a68 8eb7 ed58 2738
00000190: bbbe 9837 106b 23b8 7b5f 0f37 2806 8e37
000001a0: ec52 9bb6 6bff 4935 4d2d 40b8 0e0b e7b5
000001b0: 293c a9b6 f8aa a136 67ed 1837 ff33 1637
000001c0: f69a 06b7 bed2 b0b7 bb6b 4338 9280 9a37
000001d0: a7f1 9136 6788 0438 59fb 98b6 885c 29b8
000001e0: 96fa 13b7 24fe 0238 e03c 2536 6f3d bc35
000001f0: 8fed a637 86ba 8236 d0d0 feb7 3558 4137
00000200: 97c7 9b37 ecae 2c37 f74b 6e35 b4ef b5b6
00000210: 6e6b 8db7 29b0 1038 0406 35b6 a2b5 afb6
00000220: feb3 b038 370a 84b7 c41f 66b7 d3d8 33b7
00000230: 5843 5a37 dbcb d9b6 2819 bdb6 e769 5eb7
00000240: 66d0 2eb7 b43c 9235 ded5 8bb7 ebd9 b5b7
00000250: 7312 43b7 e2a3 dc36 2b9e a537 5c7f 14b7
00000260: 3b29 07b7 f05d afb7 772e 3938 1a1f c6b6
00000270: c0a2 2ab7 ed71 0bb6 930a f137 f5fa 8a37
00000280: fae8 8db7 fb4e 37b7 d3c6 0cb7 ab21 b1b7
00000290: 569f ffb6 21f5 bc37 8ab2 88b5 8b3d 7537
000002a0: 6402 67b6 e678 08b8 7b0d 24b6 453f 8637
000002b0: 0294 ccb6 6f17 ce37 1659 2fb6 05ed 3c38
000002c0: d654 5036 06e4 7437 9ec1 9d37 c80a d337
000002d0: 78f4 7b37 e89f 9fb7 9aa8 97b6 dbfa 8a36
000002e0: 3ee9 36b7 9e9f 9037 146d 9136 9088 66b6
000002f0: 42ae ec37 9a4b d8b7 8214 8fb5 00f4 0e37
00000300: 6877 dd37 08c9 5bb8 7419 8cb7 2d2e c536
00000310: c9d9 b4b6 e27d c9b7 21f6 af35 fd5d 5037
00000320: ec87 db35 6e43 6037 03d2 3035 df5d 38b6
00000330: 2049 df37 9aee ee35 1a2e a2b6 55cb 8337
00000340: bddd be35 fe38 f2b7 a3aa 2f37 3f84 7d37
00000350: 3d59 ddb5 a544 0036 3f0b 0bb8 2d50 4cb8
00000360: 6c9f 8037 f4a3 2237 dfcc 8837 d69b 1d37
00000370: 641c 03b7 a80b 20b7 8787 18b8 b13c b3b7
00000380: 91ea 4936 f308 e337 3706 f9b6 4af9 f036
00000390: ff60 6637 2896 3637 5c5e 2138 b80b e6b6
000003a0: 7351 1eb7 d6ce 45b7 7eb8 f4b4 cc42 5336
000003b0: 9f6b c636 9ca8 eb36 a0a8 cc37 2c6b c6b1
000003c0: bc1b d6b8 02f9 b9b7 887b d2b5 c1cd 79b8
000003d0: 5909 8937 775a 5cb7 dce7 bfb5 b9b2 8cb5
000003e0: e2e2 47b7 1d17 2136 8014 fbb6 fb62 cb37
000003f0: b6a7 c6b7 7ebf 3bb8 613a 86b5 d6ab c237

network.1.weight f4 [256]
0.5561469 0.498298 0.5315426 0.5923644 0.4800277 0.53006065 0.60054845 0.53685457
0.52071667 0.46582323 0.49920383 0.34827513 0.5608196 0.57016736 0.45453832 0.52763385
0.4951574 0.512827 0.61198425 0.52626014 0.5998765 0.5067197 0.43712366 0.55720186
0.5142171 0.56173664 0.50194293 0.45397764 0.4692408 0.51504475 0.45910576 0.37601617
0.41144323 0.44351578 0.52373725 0.5693595 0.35031706 0.43463343 0.4776829 0.2089964
0.59008974 0.5773292 0.57908183 0.6589478 0.38177812 0.52071947 0.63329405 0.44365132
0.59677756 0.51852274 0.54735285 0.55349463 0.7638003 0.55464184 0.5273981 0.59717
0.48230433 0.5412248 0.34907612 0.30041522 0.45872468 0.54605097 0.6401818 0.52732
0.5100024 0.3419875 0.58101624 0.51162547 0.51885873 0.40079984 0.47230095 0.3171109
0.5531592 0.457222 0.42461082 0.4668718 0.41095462 0.5345802 0.5292778 0.40528086
0.3384351 0.61088943 0.58185434 0.5247194 0.5071794 0.4787282 0.54649234 0.42972448
0.463106 0.38430202 0.5284587 0.38537925 0.5646743 0.38315782 0.5088073 0.46966723
0.51613253 0.44271117 0.56221104 0.52358955 0.5252074 0.63572156 0.30857283 0.34392235
0.30477226 0.46483016 0.39428863 0.63339865 0.547395 0.5620862 0.42381158 0.4016269
0.45061797 0.5774181 0.4915884 0.5041991 0.5940346 0.5758398 0.47395617 0.46470776
0.5677442 0.5771888 0.4749105 0.36181 0.5782143 0.49841642 0.49255335 0.49185526
0.60252327 0.60117704 0.5291786 0.4032121 0.33165216 0.40598547 0.43913284 0.6112267
0.55248547 0.4774189 0.3792679 0.39183003 0.593191 0.59770733 0.4721783 0.5222162
0.5227997 0.5093645 0.4104636 0.4152392 0.4108796 0.4879308 0.49597302 0.4640641
0.46000558 0.45362467 0.49659446 0.5382881 0.36040592 0.30027005 0.4849713 0.52960104
0.4321043 0.52081794 0.4846169 0.42403248 0.56557214 0.560004 0.52646804 0.6302509
0.6441344 0.56635225 0.3762614 0.5350214 0.5309828 0.4487209 0.41785032 0.6335783
0.4308248 0.51169515 0.5594053 0.601364 0.6169859 0.4862571 0.37908056 0.49609515
0.6211455 0.55421215 0.47078833 0.5761967 0.66359454 0.47637525 0.58398855 0.3683448
0.5340687 0.5083391 0.55424935 0.4216237 0.55110615 0.51577485 0.47097188 0.682
0.45228174 0.60172814 0.59221554 0.3142182 0.5964243 0.48198825 0.49362543 0.5231855
0.5397713 0.51251006 0.30983564 0.49349505 0.39724186 0.3976441 0.56726354 0.6130038
0.5284727 0.5141729 0.4106505 0.60132164 0.39386213 0.48562625 0.59333324 0.7400449
0.5188152 0.44181606 0.40556768 0.5672689 0.5634511 0.5788509 0.44597086 0.47408104
0.4809702 0.3883523 0.48670807 0.35010487 0.52498126 0.389846 0.60361004 0.29870048
0.69550014 0.5820046 0.49908978 0.5942338 0.5684219 0.5061152 0.5252528 0.57009035
0.5325324 0.6604251 0.48814398 0.50211406 0.4480615 0.47748488 0.5231819 0.5392219
00000000: a55f 0e3f ea20 ff3e 2d13 083f 31a5 173f
00000010: 31c6 f53e 0eb2 073f 8bbd 193f 4d6f 093f
00000020: b04d 053f 6280 ee3e a597 ff3e 1e51 b23e
00000030: e091 0f3f 7df6 113f 3fb9 e83e 0313 073f
00000040: 4585 fd3e a148 033f 00ab 1c3f fcb8 063f
00000050: 8291 193f 62b8 013f acce df3e c8a4 0e3f
00000060: bba3 033f f9cd 0f3f 557f 003f c26f e83e
00000070: 5540 f03e f9d9 033f e90f eb3e 3185 c03e
00000080: b0a8 d23e 8014 e33e a513 063f 8bc1 113f
00000090: c25c b33e 4688 de3e da92 f43e 2703 563e
000000a0: 1f10 173f d9cb 133f b53e 143f ceb0 283f
000000b0: 6c78 c33e df4d 053f 8f1f 223f 4426 e33e
000000c0: 6ac6 183f e8bd 043f 511f 0c3f d3b1 0d3f
000000d0: 6b88 433f 02fd 0d3f 9003 073f 22e0 183f
000000e0: 98f0 f63e b58d 0a3f 1bba b23e 06d0 993e
000000f0: f6dd ea3e ffc9 0b3f f4e2 233f 72fe 063f
00000100: 848f 023f fc18 af3e 7bbd 143f e3f9 023f
00000110: edd3 043f a335 cd3e 6ed1 f13e 5c5c a23e
00000120: d79b 0d3f 0119 ea3e 9766 d93e d209 ef3e
00000130: a568 d23e 3fda 083f c07e 073f f980 cf3e
00000140: 5e47 ad3e 4063 1c3f 68f4 143f 0354 063f
00000150: 82d6 013f dd1b f53e ece6 0b3f d904 dc3e
00000160: 3b1c ed3e 3cc3 c43e 1249 073f 6e50 c53e
00000170: 7f8e 103f 432d c43e 3241 023f 3978 f03e
00000180: 4321 043f 0aab e23e 10ed 0f3f f709 063f
00000190: fe73 063f a6be 223f 42fd 9d3e 9716 b03e
000001a0: 1c0b 9c3e 38fe ed3e 33e0 c93e 6a26 223f
000001b0: 1422 0c3f e2e4 0f3f d5fd d83e 0ba2 cd3e
000001c0: 66b7 e63e acd1 133f 7ab1 fb3e 3113 013f
000001d0: a712 183f 3d6a 133f 62aa f23e 2dee ed3e
000001e0: af57 113f a5c2 133f 7827 f33e 293f b93e
000001f0: da05 143f 7030 ff3e f42f fc3e 74d4 fb3e
00000200: f73e 1a3f bde6 193f 4078 073f d171 ce3e
00000210: 50ce a93e 54dd cf3e 05d6 e03e 5a79 1c3f
00000220: b06f 0d3f 4070 f43e 672f c23e f29d c83e
00000230: 5edb 173f 5903 193f 5bc1 f13e f6af 053f
00000240: 33d6 053f b665 023f 4928 d23e 3c9a d43e
00000250: d05e d23e 11d2 f93e 2df0 fd3e cf99 ed3e
00000260: da85 eb3e 7e41 e83e a141 fe3e 40cd 093f
00000270: 2087 b83e ffbc 993e 294e f83e ef93 073f
00000280: c63c dd3e 5354 053f b51f f83e c91a d93e
00000290: 56c9 103f 6c5c 0f3f 9cc6 063f 1f58 213f
000002a0: fee5 243f 76fc 103f 56a5 c03e 2af7 083f
000002b0: 7dee 073f bfbe e53e 7af0 d53e 3032 223f
000002c0: 1195 dc3e 74fe 023f 3035 0f3f fef2 193f
000002d0: caf2 1d3f b1f6 f83e d916 c23e 2f00 fe3e
000002e0: 6403 1f3f d9e0 0d3f 2b0b f13e a081 133f
000002f0: 55e1 293f 75e7 f33e 4680 153f b197 bc3e
00000300: bab8 083f 8322 023f 49e3 0d3f 10df d73e
00000310: 4b15 0d3f d209 043f 3a23 f13e 8d97 2e3f
00000320: 7991 e73e db0a 1a3f 709b 173f 35e1 a03e
00000330: 43af 183f 2ac7 f63e 79bc fc3e 7cef 053f
00000340: 742e 0a3f dc33 033f c7a2 9e3e 62ab fc3e
00000350: 4963 cb3e 0298 cb3e 2f38 113f d1ed 1c3f
00000360: fd49 073f d6a0 033f c840 d23e 37f0 193f
00000370: 4ca8 c93e 01a4 f83e b0e4 173f 9573 3d3f
00000380: 13d1 043f b735 e23e 91a6 cf3e 8938 113f
00000390: 553e 103f 932f 143f 4b56 e43e c0ba f23e
000003a0: ba41 f63e 1dd6 c63e cd31 f93e f240 b33e
000003b0: 2c65 063f e599 c73e 3086 1a3f 45ef 983e
000003c0: 4c0c 323f 41fe 143f b288 ff3e b51f 183f
000003d0: 1984 113f c490 013f f876 063f 71f1 113f
000003e0: 0b54 083f 9f11 293f 02ee f93e 8c8a 003f
000003f0: 5168 e53e e678 f43e 40ef 053f 720a 0a3f

network.1.bias f4 [256]
-0.44456932 -0.4312467 -0.40837947 -0.44795537 -0.3855266 -0.5571274 -0.43601206 -0.41948363
-0.39815497 -0.21814147 -0.11747817 -0.5062619 -0.56235373 -0.27519965 -0.21035267 -0.53125685
-0.38092488 -0.22271287 -0.363981 -0.4049053 -0.35333198 -0.4463688 -0.1585982 -0.3905149
-0.30294603 -0.2942978 -0.15238258 -0.28497666 -0.25531176 -0.41755238 -0.3286984 -0.30183354
-0.3183444 -0.11789159 -0.38206714 -0.446978 -0.25748926 -0.48638615 -0.53131455 -0.18519488
-0.32502934 -0.17092077 -0.37008214 -0.35272422 -0.03333295 -0.40513512 -0.1727377 -0.08834045
-0.52708584 -0.3547851 -0.083445325 -0.09275956 -0.5437543 -0.30197293 -0.28434187 -0.35050854
-0.5229305 -0.19899662 -0.48912176 -0.10407669 -0.4523396 -0.35897425 -0.3397556 -0.21310909
-0.2689755 -0.35011485 -0.43519148 -0.2791121 -0.3433773 -0.36524406 -0.39637402 -0.26753044
-0.39278957 -0.028158948 -0.34260055 -0.027483823 -0.47795942 -0.34929466 -0.35871166 -0.27918524
-0.268723 -0.49437645 -0.46634197 -0.18996307 -0.5167797 -0.4794361 -0.4656715 -0.22713669
-0.33671653 -0.25639597 -0.3179881 -0.23589024 -0.25978252 -0.254368 -0.2715573 -0.20337462
-0.2655969 -0.6968079 -0.18096346 -0.27822486 -0.5817245 -0.61522067 -0.19524868 -0.3177366
-0.14191572 -0.2217839 -0.19773737 -0.2527692 -0.5803622 -0.29183152 -0.27982974 -0.310487
-0.29473406 -0.31713578 -0.23666278 -0.31039995 -0.4777211 -0.31937066 -0.07497781 -0.6976146
-0.465482 -0.2321481 -0.3121317 -0.09815207 -0.6841017 -0.2938344 -0.70701236 -0.33141792
-0.6014103 -0.31887954 -0.45315483 -0.3668581 -0.29201907 -0.28578037 -0.540143 -0.22318228
-0.4365799 -0.18153818 -0.33281538 -0.16092438 -0.07562886 -0.3600678 -0.37280044 -0.6290355
-0.6235172 -0.4411514 -0.46372128 -0.23347561 -0.58730924 -0.55657136 -0.34453815 -0.201223
-0.5590811 -0.16462423 -0.746237 -0.32208678 -0.2597439 -0.34657404 -0.28945294 -0.29001537
-0.39678925 -0.5122331 -0.32506925 -0.67656064 -0.26076412 -0.24420473 -0.19005266 -0.4493497
-0.3721526 -0.5210655 -0.35938036 -0.39092907 -0.3995574 -0.1581757 -0.29365897 -0.37055486
-0.32476744 -0.10148937 -0.47473285 -0.55821514 -0.2555395 -0.3730099 -0.24769337 -0.42078373
-0.5534374 -0.22402231 -0.18806998 -0.46668088 -0.43456975 -0.21645114 -0.29790926 -0.15510617
-0.54605454 -0.07599593 -0.50810766 -0.52975386 -0.6646168 -0.29183537 -0.20868166 -0.49274454
-0.3096416 -0.33093604 -0.47169536 -0.18373276 -0.405977 -0.4081024 -0.3844729 -0.3328638
-0.24418093 -0.43229753 0.008203199 -0.52224004 -0.38751277 -0.09325288 -0.28617892 -0.47799748
-0.3896805 -0.4817577 -0.20208885 -0.16020209 -0.4770042 -0.39262787 -0.2519663 -0.6758853
-0.2976737 -0.25615403 -0.48832223 -0.48868096 -0.36531976 -0.40947527 -0.49360976 -0.40066263
-0.440246 -0.25743595 -0.48053756 -0.3391063 -0.4290593 0.015848199 -0.5564913 -0.16024616
-0.6312839 -0.4257091 -0.4595273 -0.6082562 -0.5104917 -0.2102159 -0.5190735 -0.3804446
-0.52694595 -0.34018955 -0.3377527 -0.16052826 -0.19381735 -0.377053 -0.41476482 -0.54757816
00000000: 979e e3be 5ecc dcbe 1d17 d1be 685a e5be
00000010: be63 c5be e79f 0ebf f93c dfbe 8fc6 d6be
00000020: f8da cbbe 7a60 5fbe 6598 f0bd 619a 01bf
00000030: 6af6 0fbf f8e6 8cbe b166 57be 7300 08bf
00000040: 9608 c3be d80e 64be b85b babe bf4f cfbe
00000050: eee7 b4be 748a e4be 9167 22be 92f1 c7be
00000060: be1b 9bbe 34ae 96be 2e0a 1cbe 76e8 91be
00000070: 39b8 82be 6dc9 d5be 284b a8be ed89 9abe
00000080: 0afe a2be 2571 f1bd 4e9e c3be 4dda e4be
00000090: a2d5 83be 9b07 f9be 3b04 08bf baa3 3dbe
000000a0: 3f6a a6be db05 2fbe 687b bdbe 4598 b4be
000000b0: 2288 08bd df6d cfbe 27e2 30be d6eb b4bd
000000c0: 19ef 06bf 65a6 b5be 62e5 aabd b9f8 bdbd
000000d0: 7b33 0bbf 329c 9abe 4295 91be db75 b3be
000000e0: c6de 05bf c5c5 4bbe 2b6e fabe 2926 d5bd
000000f0: 0e99 e7be 79cb b7be 72f4 adbe 4539 5abe
00000100: 28b7 89be 4142 b3be 6bd1 debe c8e7 8ebe
00000110: 26cf afbe 4501 bbbe 89f1 cabe c0f9 88be
00000120: b71b c9be 98ad e6bc 5769 afbe c125 e1bc
00000130: 19b7 f4be c0d6 b2be 0ea9 b7be 5ef1 8ebe
00000140: 1096 89be e91e fdbe 60c4 eebe ae85 42be
00000150: ad4b 04bf a678 f5be 7f6c eebe 8596 68be
00000160: 1c66 acbe 5546 83be 56cf a2be 368d 71be
00000170: 3702 85be 863c 82be 8f09 8bbe 7041 50be
00000180: 51fc 87be 0162 32bf 7c4e 39be 7d73 8ebe
00000190: e6eb 14bf 1a7f 1dbf 45ef 47be 5fae a2be
000001a0: 5b52 11be 521b 63be aa7b 4abe f76a 81be
000001b0: 9e92 14bf f16a 95be d845 8fbe 27f8 9ebe
000001c0: 62e7 96be 9f5f a2be ba57 72be beec 9ebe
000001d0: dc97 f4be 8d84 a3be f78d 99bd df96 32bf
000001e0: a853 eebe 3bb8 6dbe bacf 9fbe f403 c9bd
000001f0: 4a21 2fbf 7671 96be c3fe 34bf 9caf a9be
00000200: 07f6 19bf 2e44 a3be e903 e8be d3d4 bbbe
00000210: 8683 95be ce51 92be d046 0abf e589 64be
00000220: 6787 dfbe 25e5 39be c766 aabe 5cc9 24be
00000230: 4ee3 9abd cf5a b8be b3df bebe 7808 21bf
00000240: d39e 1fbf 99de e1be e06c edbe 3b14 6fbe
00000250: e659 16bf 767b 0ebf 4e67 b0be 670d 4ebe
00000260: f01f 0fbf 4193 28be 6309 3fbf 8fe8 a4be
00000270: 27fd 84be 2772 b1be 2d33 94be e57c 94be
00000280: f627 cbbe b521 03bf 7a6f a6be 1433 2dbf
00000290: e082 85be ce10 7abe 2a9d 42be 2a11 e6be
000002a0: c98a bebe 8c64 05bf b400 b8be db27 c8be
000002b0: ca92 ccbe d0f8 21be 785a 96be 5eb9 bdbe
000002c0: eb47 a6be a9d9 cfbd 2f10 f3be 30e7 0ebf
000002d0: 13d6 82be 27fb bebe 55a3 7dbe f770 d7be
000002e0: 13ae 0dbf 1b66 65be 6b95 40be ccf0 eebe
000002f0: ed7f debe 5ea5 5dbe 9087 98be 27d4 1ebe
00000300: 3bca 0bbf c1a3 9bbd 5813 02bf f39d 07bf
00000310: 5424 2abf 726b 95be a5b0 55be 0349 fcbe
00000320: 5889 9ebe 7370 a9be 0e82 f1be 7124 3cbe
00000330: 38dc cfbe ccf2 d0be a2d9 c4be 206d aabe
00000340: 910a 7abe 1a56 ddbe b666 063c 86b1 05bf
00000350: 1368 c6be 5efb bebd 0b86 92be 16bc f4be
00000360: 3484 c7be f2a8 f6be 61f0 4ebe 040c 24be
00000370: e539 f4be 8506 c9be ba01 81be d206 2dbf
00000380: b068 98be 9f26 83be 5f05 fabe 6434 fabe
00000390: 310b bbbe bea6 d1be 6bba fcbe a723 cdbe
000003a0: ec67 e1be a5ce 83be 0509 f6be 579f adbe
000003b0: a9ad dbbe 15d4 813c 3776 0ebf 9217 24be
000003c0: d29b 21bf 8bf6 d9be 2a47 ebbe aeb6 1bbf
000003d0: 96af 02bf d642 57be 00e2 04bf a2c9 c2be
000003e0: eee5 06bf 532d aebe eced acbe 8561 24be
000003f0: 0e78 46be 170d c1be 0e5c d4be 152e 0cbf

network.1.running_mean f4 [256]
-0.107011326 -0.48551503 0.08333266 -0.31974506 0.6684046 0.28128928 0.23781128 0.16027325
-0.8542286 0.48557574 0.40570736 0.13605838 -0.83903193 0.5316147 -1.6486696 0.3406413
-0.06996335 0.578314 -0.25404754 -1.6002678 -0.75024205 -0.2308091 1.0910171 1.2977247
0.49722672 1.7281766 0.7616944 1.4323561 -0.2969173 0.2382067 -0.8544355 0.010783202
-0.9409295 0.19505319 0.68889356 -0.22895157 -0.21984087 -1.0708127 0.6960064 -0.43075356
0.33887607 0.3808367 0.08711668 0.62412614 -0.026849955 -0.61988497 1.8348541 0.7017336
1.1879616 0.94538075 0.43241695 0.8354798 -0.6444639 -0.3677161 0.84136033 0.062391806
-0.114983924 0.7893925 0.3713947 0.8368867 0.33873627 0.7980136 0.08628707 0.043871507
-0.12700438 0.08012171 0.5922769 0.8337818 -0.15825462 0.07930793 0.6886046 -0.86682475
-0.17807767 -0.5866274 0.22020656 0.13057023 -0.49158347 0.32485917 1.2840048 -0.4234018
0.48016012 0.29949874 0.12593547 -0.32914335 -0.19112612 0.2608414 -0.4248047 1.2369604
-0.23376207 0.68160677 0.5521137 0.19810133 0.22203879 0.6497168 -1.7123268 -0.14855814
-0.43654498 0.079779394 0.7324112 0.1545573 0.12328988 -1.8124632 0.86395466 -1.0513853
0.54873633 0.1775943 0.7206762 0.8480091 -1.0844519 -0.71287537 -0.45444533 0.94594026
0.7694182 0.35669228 0.27396268 -0.4287143 -0.7879294 -0.012443597 0.3700698 0.53785
-1.0576351 0.21684062 0.5589976 -0.24107745 0.8554028 0.012292734 -0.92865974 0.6468721
1.2648324 0.008835386 -0.43931094 -0.34721282 0.6366333 -0.53875273 -0.7478885 0.3066364
0.37919015 -0.012098395 0.29338598 -0.11329363 1.2720138 0.878937 0.56790984 0.42523727
0.2665612 0.21484171 -0.51968837 -0.39047772 0.3301579 0.4855795 0.8873062 0.16797802
0.5756803 0.7266399 -1.4285002 0.13962415 -0.43506974 -0.19678836 -0.98798484 -0.33916563
0.12880528 0.39052498 -0.9190745 0.3217305 -0.66337186 0.024267701 0.7355843 -0.8208296
0.23302001 -0.4659628 -0.70468014 0.59610295 0.011775965 0.59297156 0.9383835 0.36852202
-0.9911475 1.0983504 0.8954195 -0.36021185 1.2772112 -0.5243455 -0.6569411 0.4863045
-0.5431557 -0.49525684 1.2347001 -0.49135068 0.2587138 0.59353703 0.8804741 -0.7808576
0.27894783 0.8232637 -0.36809495 -0.7358159 0.48745707 -0.0055156653 0.78620636 -0.3961076
-0.30420566 0.5421333 -0.5562107 0.13928384 -0.653207 0.1762088 0.221155 0.91000915
-0.858844 -1.0829132 -0.32735506 0.23334435 0.36966932 -0.11821976 -0.6117888 0.8244844
0.091859706 -0.18421736 0.08913481 0.23412472 -0.8786044 -0.26984668 1.1337504 0.017105926
0.71141803 0.13787031 0.5894667 -0.43144318 -0.41812694 -0.76767683 -0.7859216 0.09967594
0.23787315 0.07495957 -0.809873 -0.09711435 -0.5939416 0.60035354 -0.4761405 0.16518831
-2.086878 0.5276589 0.04393914 -1.3509157 0.3211384 0.59011847 0.85626173 -0.41733208
-0.62622976 0.15426497 0.291795 0.88250154 1.0650827 -0.118005596 0.7509115 -0.33709514
00000000: c128 dbbd 6d95 f8be 50aa aa3d a0b5 a3be
00000010: 901c 2b3f 2605 903e cd84 733e ac1e 243e
00000020: baae 5abf 629d f83e e0b8 cf3e e352 0b3e
00000030: ccca 56bf e717 083f 9b07 d3bf 8968 ae3e
00000040: f248 8fbd 630c 143f 8512 82be 93d5 ccbf
00000050: dd0f 40bf 3959 6cbe 73a6 8b3f d81b a63f
00000060: 8094 fe3e e434 dd3f 67fe 423f 7257 b73f
00000070: 8b05 98be 75ec 733e 49bc 5abf 07ac 303c
00000080: c1e0 70bf 06bc 473e 545b 303f 4872 6abe
00000090: f71d 61be 6410 89bf 7a2d 323f bb8b dcbe
000000a0: 2a81 ad3e 07fd c23e 3b6a b23d bbc6 1f3f
000000b0: 70f4 dbbc c8b0 1ebf 80dc ea3f d0a4 333f
000000c0: 200f 983f 7904 723f c165 dd3e 01e2 553f
000000d0: 96fb 24bf 4945 bcbe 6463 573f 8d8e 7f3d
000000e0: b17c ebbd a015 4a3f 7227 be3e 353e 563f
000000f0: d76e ad3e 9f4a 4c3f 46b7 b03d 9cb2 333d
00000100: 700d 02be da16 a43d 759f 173f b972 553f
00000110: 800d 22be 326c a23d 6448 303f 3ae8 5dbf
00000120: fe59 36be 372d 16bf d47d 613e 34b4 053e
00000130: d4b0 fbbe f153 a63e 455a a43f 1fc8 d8be
00000140: 8cd7 f53e e657 993e 3af5 003e 7a85 a8be
00000150: 91b6 43be 018d 853e 0080 d9be b854 9e3f
00000160: 535f 6fbe c87d 2e3f 5357 0d3f 13db 4a3e
00000170: 235e 633e d753 263f 862d dbbf a01f 18be
00000180: d382 dfbe 6163 a33d 4d7f 3b3f 4544 1e3e
00000190: 687f fc3d cbfe e7bf 222c 5d3f cb93 86bf
000001a0: fc79 0c3f 48db 353e 3c7e 383f 2017 593f
000001b0: 52cf 8abf 007f 36bf 0fad e8be 2429 723f
000001c0: 97f8 443f 5fa0 b63e d644 8c3e 7180 dbbe
000001d0: beb5 49bf 3be0 4bbc ca79 bd3e 8ab0 093f
000001e0: 9660 87bf 780b 5e3e 771a 0f3f 02dd 76be
000001f0: aefb 5a3f 7767 493c a5bc 6dbf 6999 253f
00000200: 07e6 a13f 4bc2 103c 5ded e0be e1c5 b1be
00000210: 66fa 223f b3eb 09bf 9f75 3fbf 72ff 9c3e
00000220: 3625 c23e 5938 46bc b036 963e 7e06 e8bd
00000230: 59d1 a23f 0402 613f 8a62 113f b3b8 d93e
00000240: b67a 883e 77ff 5b3e 4c0a 05bf b2ec c7be
00000250: 750a a93e e09d f83e 8026 633f 6e02 2c3e
00000260: c95f 133f 1305 3a3f 18d9 b6bf a2f9 0e3e
00000270: 76c1 debe e382 49be 93ec 7cbf 1ea7 adbe
00000280: 88e5 033e e4f2 c73e 7748 6bbf dcb9 a43e
00000290: bdd2 29bf 0fcd c63c 414f 3c3f e321 52bf
000002a0: cc9c 6e3e ad92 eebe eb65 34bf 349a 183f
000002b0: faef 403c fccc 173f e739 703f ebae bc3e
000002c0: d8bb 7dbf bf96 8c3f 363a 653f b06d b8be
000002d0: a87b a33f 823b 06bf 4b2d 28bf e7fc f83e
000002e0: 410c 0bbf 4e92 fdbe a70a 9e3f 5192 fbbe
000002f0: 2376 843e 0bf2 173f c066 613f 49e6 47bf
00000300: 40d2 8e3e 69c1 523f f176 bcbe 6e5e 3cbf
00000310: f993 f93e c1bc b4bb d244 493f 9ece cabe
00000320: d8c0 9bbe 3fc9 0a3f d363 0ebf 6ca0 0e3e
00000330: 9338 27bf 1470 343e 7576 623e 5cf6 683f
00000340: 33dd 5bbf e69c 8abf 159b a7be d2f1 6e3e
00000350: 4c45 bd3e 341d f2bd 319e 1cbf 6911 533f
00000360: f120 bc3d 7aa3 3cbe 508c b63d 64be 6f3e
00000370: 38ec 60bf 5829 8abe bc1e 913f ba21 8c3c
00000380: 7e1f 363f e02d 0d3e 4ae7 163f 1fe6 dcbe
00000390: bc14 d6be 7886 44bf 2832 49bf e622 cc3d
000003a0: 0595 733e 6784 993d d653 4fbf e3e3 c6bd
000003b0: 8f0c 18bf c5b0 193f b0c8 f3be 2027 293e
000003c0: 698f 05c0 a714 073f 87f9 333d ceea acbf
000003d0: 416c a43e 0112 173f f833 5b3f 8dac d5be
000003e0: 9850 20bf a3f7 1d3e 2766 953e 9feb 613f
000003f0: a154 883f ebac f1bd bc3b 403f bc97 acbe

network.1.running_var f4 [256]
0.2512936 0.1779593 0.22699392 0.15808481 0.20668122 0.1286158 0.35184717 0.28296822
0.13730426 0.20286632 0.27935702 0.11746674 0.13792181 0.1988546 0.17041908 0.23218949
0.16660394 0.17982447 0.16314244 0.15110375 0.1590398 0.2020374 0.18550076 0.1481674
0.19977157 0.129503 0.1733719 0.15215315 0.17355399 0.19017933 0.1946007 0.17057507
0.14224601 0.14529806 0.2561686 0.122089624 0.13160755 0.08028401 0.19473483 0.07271425
0.20611872 0.23177423 0.16949162 0.19055133 0.15148269 0.25944406 0.12082138 0.22599088
0.14698747 0.16017406 0.21988119 0.26193786 0.27264303 0.14578913 0.19976337 0.23328221
0.1845723 0.24125212 0.17553473 0.17871019 0.19376597 0.33419064 0.16738279 0.21679127
0.2181134 0.099372685 0.15033503 0.16574055 0.14511345 0.07236312 0.2150676 0.12560272
0.12772621 0.18303931 0.1308491 0.19794178 0.13833319 0.14716826 0.21709813 0.1287327
0.09380463 0.32198632 0.30890977 0.16879664 0.1906562 0.24616413 0.14550638 0.16148372
0.15152267 0.16082525 0.13257323 0.1969065 0.2439811 0.18533958 0.14090046 0.17960273
0.09497285 0.13577597 0.24961846 0.17652634 0.18059489 0.129158 0.16538541 0.099314004
0.15012747 0.19768165 0.15516429 0.1838267 0.092979655 0.14713924 0.21126142 0.16430622
0.24385935 0.15443572 0.2797865 0.11557947 0.15853421 0.19461378 0.28954753 0.13061735
0.13675298 0.18379581 0.1790482 0.13688856 0.19312717 0.16535486 0.13433908 0.22983548
0.15569693 0.18113993 0.17818476 0.18355258 0.14638399 0.12612803 0.154857 0.20591901
0.15921684 0.19688733 0.116863176 0.15538406 0.24660566 0.2317659 0.15559986 0.23271534
0.20951162 0.18626633 0.08796232 0.19197427 0.20962271 0.19665499 0.12579735 0.1929052
0.112381496 0.19649385 0.11571102 0.27059165 0.11021344 0.119078726 0.15624924 0.1929049
0.13467206 0.2320598 0.12844987 0.08542936 0.17501406 0.17394818 0.34559646 0.12426008
0.112330064 0.112519346 0.12542711 0.1600154 0.16431636 0.22545159 0.1341763 0.16098632
0.14261472 0.22435811 0.2809316 0.1453208 0.23283917 0.14374228 0.16381226 0.19662195
0.23753904 0.14589353 0.18555754 0.17346431 0.25927925 0.2822876 0.17253478 0.18674208
0.12833422 0.29808348 0.16869655 0.12986797 0.12496319 0.1751961 0.19668415 0.109756246
0.1755656 0.20171882 0.12659663 0.14540103 0.1569645 0.1352617 0.14147985 0.21269387
0.13699743 0.1816912 0.16290341 0.15474035 0.13496707 0.30837333 0.17535123 0.15661834
0.33999988 0.1823582 0.14473373 0.2911541 0.13318601 0.101704955 0.17747183 0.14316595
0.16555382 0.13676466 0.18779469 0.14228582 0.2075563 0.12180736 0.095695905 0.19345601
0.1544063 0.120037265 0.11713326 0.10963201 0.21174404 0.1997897 0.18580543 0.13830954
0.15017495 0.17835742 0.14805123 0.13344967 0.27973232 0.28118947 0.2726773 0.14648162
0.12069005 0.2224711 0.14374503 0.16304708 0.2321474 0.14784114 0.15582739 0.17010592
00000000: 8ea9 803e f63a 363e 1871 683e fce0 213e
00000010: 3ea4 533e dcb3 033e 5025 b43e 36e1 903e
00000020: 7d99 0c3e 30bc 4f3e e207 8f3e 6792 f03d
00000030: 603b 0d3e 8aa0 4b3e 5782 2e3e 15c3 6d3e
00000040: 399a 2a3e e823 383e d00e 273e f1ba 1a3e
00000050: 54db 223e e4e2 4e3e e9f3 3d3e 32b9 173e
00000060: eb90 4c3e 6f9c 043e 6788 313e 09ce 1b3e
00000070: 23b8 313e 5fbe 423e 6845 473e 3bab 2e3e
00000080: f0a8 113e 04c9 143e 8828 833e 200a fa3d
00000090: 21c4 063e f16b a43d 9168 473e 35eb 943d
000000a0: c910 533e 3956 6d3e 368f 2d3e e31f 433e
000000b0: 471e 1b3e dad5 843e 3371 f73d 276a 673e
000000c0: e283 163e ab04 243e 8928 613e b81c 863e
000000d0: de97 8b3e bf49 153e c58e 4c3e 88e1 6e3e
000000e0: 8500 3d3e cc0a 773e 60bf 333e ceff 363e
000000f0: 966a 463e 091b ab3e 6566 2b3e 88fe 5d3e
00000100: 1e59 5f3e e883 cb3d 6df1 193e e4b7 293e
00000110: 9f98 143e 1e33 943d ae3a 5c3e 009e 003e
00000120: a9ca 023e a86e 3b3e 4efd 053e 40b1 4a3e
00000130: 37a7 0d3e 47b3 163e f94e 5e3e 81d2 033e
00000140: a41c c03d 64db a43e 6c29 9e3e 07d9 2c3e
00000150: 613b 433e 7312 7c3e a0ff 143e fd5b 253e
00000160: c228 1b3e 60af 243e 47c1 073e dca1 493e
00000170: 2ed6 793e a9c9 3d3e 3648 103e c7e9 373e
00000180: 2081 c23d db08 0b3e fb9b 7f3e 52c3 343e
00000190: deed 383e ff41 043e cb5a 293e 2465 cb3d
000001a0: 04bb 193e 0f6d 4a3e 63e3 1e3e 113d 3c3e
000001b0: 1e6c be3d abab 163e ea54 583e e43f 283e
000001c0: 44b6 793e 6624 1e3e 2d40 8f3e eeb4 ec3d
000001d0: cb56 223e d648 473e 933f 943e 8ec0 053e
000001e0: f908 0c3e f834 3c3e 6958 373e 842c 0c3e
000001f0: 21c3 453e c952 293e 2f90 093e fe59 6b3e
00000200: 046f 1f3e bf7c 393e 1176 363e 35f5 3b3e
00000210: afe5 153e b527 013e d592 1e3e 6fdc 523e
00000220: bd09 233e d59c 493e f655 ef3d 001d 1f3e
00000230: 3286 7c3e 0a54 6d3e 9255 1f3e ee4c 6e3e
00000240: 378a 563e 9abc 3e3e 9725 b43d e794 443e
00000250: 56a7 563e ed5f 493e 05d1 003e f188 453e
00000260: 4528 e63d af35 493e e6f9 ec3d fd8a 8a3e
00000270: 96b7 e13d 8cdf f33d cdff 1f3e dd88 453e
00000280: 79e7 093e 16a1 6d3e 5d88 033e 97f5 ae3d
00000290: e336 333e 791f 323e 05f2 b03e 127c fe3d
000002a0: 4e0d e63d 8b70 e63d f76f 003e 14db 233e
000002b0: 8c42 283e c8dc 663e 8365 093e 99d9 243e
000002c0: 9809 123e 22be 653e 44d6 8f3e face 143e
000002d0: 646d 6e3e 2d31 133e 67be 273e 4457 493e
000002e0: 6f3d 733e 1d65 153e cc02 3e3e a1a0 313e
000002f0: 40c0 843e 0088 903e f5ac 303e 5139 3f3e
00000300: 0c6a 033e 669e 983e cabe 2c3e 1cfc 043e
00000310: b3ec ff3d 9b66 333e 9267 493e e2c7 e03d
00000320: 78c7 333e 618f 4e3e 8ca2 013e 02e4 143e
00000330: 4dbb 203e 0b82 0a3e 18e0 103e 6ccc 593e
00000340: 0e49 0c3e 420d 3a3e 27d0 263e 4174 1e3e
00000350: cf34 0a3e 1ce3 9d3e 468f 333e 8f60 203e
00000360: 7714 ae3e 1cbc 3a3e 1435 143e 2612 953e
00000370: ea61 083e b04a d03d 2dbb 353e 189a 123e
00000380: f186 293e 090c 0c3e 404d 403e 60b3 113e
00000390: a489 543e 2376 f93d 37fc c33d 5519 463e
000003a0: af1c 1e3e 19d6 f53d 90e3 ef3d bf86 e03d
000003b0: 6ed3 583e ac95 4c3e c743 3e3e 04a1 0d3e
000003c0: 76c7 193e 54a3 363e be9a 173e 08a7 083e
000003d0: 1339 8f3e 11f8 8f3e 5c9c 8b3e 47ff 153e
000003e0: 582c f73d 77cf 633e e631 133e d0f5 263e
000003f0: 0cb8 6d3e ab63 173e 3791 1f3e 3f30 2e3e

network.4.weight f4 [128, 256]
-0.15224282 -0.037659902 -0.2748746 -0.18177739 -0.012078268 -0.09158593 -0.031340387 -0.17179969
-0.13626194 0.06144699 0.017249422 -0.052424643 -0.034588393 0.068572484 -0.06898995 -0.06793348
-0.08589193 0.087883405 -0.049596135 -0.17725998 -0.03520859 -0.0717395 -0.33296004 -0.016865933
-0.051931255 -0.012316203 0.026073653 -0.035084013 -0.08258716 -0.17766924 -0.033134464 -0.08735747
-0.045954384 -0.16462755 -0.10356537 0.0980396 -0.17092095 -0.14605087 -0.18946251 0.067947246
-0.011822115 0.07420725 0.20632894 -0.144596 -0.2570849 -0.10752298 -0.011309511 -0.065058224
0.08601417 -0.13839942 0.070341066 0.06254656 -0.06862107 0.04627806 0.10624139 0.023409165
-0.05273719 0.068866715 -0.05597216 0.02064696 -0.08040041 -0.24911007 0.15401481 -0.19175503
-0.0612978 -0.007404759 0.01667844 -0.13709894 0.057665907 -0.16245897 0.09056111 -0.0036205577
-0.056888197 -0.12121783 -0.044632956 0.04333133 -0.08502556 0.051478 0.0762054 -0.051884096
-0.08293451 -0.11989512 -0.150045 -0.069460064 -0.03626378 -0.015200307 -0.08040099 0.045340482
-0.023357898 -0.020779895 0.031367548 -0.07688439 -0.06402092 -0.059210688 -0.21857336 -0.07612452
0.06458173 -0.09559074 -0.04697238 0.11899672 -0.20275906 -0.05859395 0.09600343 0.05198694
0.13085087 -0.28295323 0.05789894 -0.011389208 -0.105818346 -0.06702907 0.037033845 0.0351376
0.13921583 -0.0013506395 0.044506036 -0.06903235 0.02041568 0.13973358 0.02107484 -0.16038659
-0.047053296 0.023882566 0.06899076 0.0006981092 0.03734314 -0.20446858 -0.062092483 -0.16811717
-0.027496349 -0.050516758 -0.09928699 -0.10714419 -0.12971032 -0.051455714 -0.069795296 -0.10901452
-0.11492378 0.11873241 0.1533276 -0.06108372 0.06319571 -0.14038782 -0.12547676 -0.06692804
-0.018315088 -0.12180343 -0.03244384 0.049619384 -0.052309457 -0.020564154 -0.06909411 -0.17870495
0.0027091189 -0.0622523 -0.07094879 0.027851062 -0.07410014 -0.09964293 -0.08687773 -0.1687254
-0.071026 -0.027457535 0.07560781 0.011170556 -0.06682995 -0.059042353 -0.053128857 -0.12111449
-0.022448123 -0.054768823 0.0054903324 0.02031548 0.106347814 -0.19866025 0.10811511 -0.0018011846
-0.041558154 0.0035780473 0.14228864 -0.086663455 0.03310745 -0.056178205 -0.080489315 -0.08699379
0.0014761699 0.09323621 -0.0043010646 0.10988167 -0.18731236 -0.01862986 -0.17164597 -0.04470726
-0.011491087 0.06920159 -0.13320057 -0.07117041 -0.05851367 -0.09402372 0.006688438 -0.005674483
0.0181592 -0.0001059646 0.129714 -0.10881699 -0.043500237 -0.083776616 -0.22245057 0.039275665
-0.025842033 -0.011418173 -0.12026294 -0.13221297 -0.04719629 -0.00040587984 -0.057842653 -0.069893755
-0.16180582 -0.058598492 -0.11348383 0.019361617 -0.10422051 -0.013804515 0.1680078 -0.04350258
-0.03321324 -0.026394237 0.06316547 0.092191085 -0.015373219 -0.08133183 0.06520207 -0.08145282
-0.020326499 -0.07971653 -0.008721259 -0.0378638 -0.0807207 -0.11096047 -0.028511988 -0.03298753
-0.14488481 -0.12051312 -0.041555684 -0.08669392 0.030238124 0.058739945 -0.09979767 0.07310343
0.048714425 0.11178264 -0.12799853 -0.106413685 0.073041774 -0.13857059 -0.047829255 0.056490198
00000000: 8be5 1bbe 4541 1abd 5dbc 8cbe da23 3abe
00000010: eee3 45bc 6791 bbbd c75e 00bd 42ec 2fbe
00000020: 4088 0bbe d7af 7b3d a94e 8d3c 39bb 56bd
00000030: 8fac 0dbd bb6f 8c3d 9a4a 8dbd b520 8bbd
00000040: 1ce8 afbd 37fc b33d 5125 4bbd a483 35be
00000050: e236 10bd 29ec 92bd bd79 aabe 6d2a 8abc
00000060: deb5 54bd e6c9 49bc 6a98 d53c 41b4 0fbd
00000070: 7523 a9bd edee 35be 01b8 07bd 79e8 b2bd
00000080: aa3a 3cbd 2094 28be 151a d4bd fcc8 c83d
00000090: e705 2fbe 5c8e 15be 7602 42be ed27 8b3d
000000a0: 8bb1 41bc f8f9 973d e547 533e f910 14be
000000b0: a2a0 83be 0235 dcbd 874b 39bc 3f3d 85bd
000000c0: 3228 b03d 94b8 0dbe fa0e 903d 6918 803d
000000d0: 3489 8cbd 108e 3d3d 1695 d93d 94c4 bf3c
000000e0: f402 58bd fe09 8d3d 1043 65bd d023 a93c
000000f0: f8a8 a4bd b616 7fbe 0fb6 1d3e 6e5b 44be
00000100: 6713 7bbd 9fa3 f2bb 39a1 883c aa63 0cbe
00000110: 1633 6c3d a55b 26be 1a78 b93d e146 6dbb
00000120: 9903 69bd 0e41 f8bd 0cd1 36bd 317c 313d
00000130: e121 aebd 98da 523d 9411 9c3d 6b84 54bd
00000140: 92d9 a9bd 938b f5bd 65a5 19be 1441 8ebd
00000150: 5489 14bd b50a 79bc 46a9 a4bd f1b6 393d
00000160: 1059 bfbc 993a aabc 427b 003d 9075 9dbd
00000170: 661d 83bd e886 72bd b2d1 5fbe 2ce7 9bbd
00000180: 6d43 843d 14c5 c3bd 1c66 40bd 8db4 f33d
00000190: 12a0 4fbe 3600 70bd 729d c43d 42f0 543d
000001a0: c5fd 053e 3fdf 90be 7027 6d3d cd99 3abc
000001b0: 4ab7 d8bd 8946 89bd cdb0 173d 72ec 0f3d
000001c0: 988e 0e3e f107 b1ba f64b 363d d560 8dbd
000001d0: c93e a73c 5216 0f3e 25a5 ac3c 623c 24be
000001e0: f5ba 40bd 5fa5 c33c 074b 8d3d 5101 373a
000001f0: 1ff5 183d 3660 51be b054 7ebd e826 2cbe
00000200: 0640 e1bc a9ea 4ebd fa56 cbbd 6a6e dbbd
00000210: c8d2 04be 3ac3 52bd d6f0 8ebd 0143 dfbd
00000220: 295d ebbd fa29 f33d e901 1d3e ec32 7abd
00000230: c16c 813d d3c1 0fbe fb7c 00be 9111 89bd
00000240: 8609 96bc 1474 f9bd d5e3 04bd b23d 4b3d
00000250: 7142 56bd 2876 a8bc 3681 8dbd 6efe 36be
00000260: 798b 313b 45fc 7ebd 994d 91bd e927 e43c
00000270: d0c1 97bd 9811 ccbd f4ec b1bd 5ac6 2cbe
00000280: 1476 91bd a0ee e0bc 44d8 9a3d b504 373c
00000290: 24de 88bd 65d6 71bd a59d 59bd e00a f8bd
000002a0: 20e5 b7bc 4655 60bd 3fe8 b33b a66c a63c
000002b0: e2cc d93d 986d 4bbe 746b dd3d ba15 ecba
000002c0: e238 2abd ac7d 6a3b 1db4 113e 9c7c b1bd
000002d0: ad9b 073d 1e1b 66bd 95d7 a4bd cd29 b2bd
000002e0: 0b7c c13a a0f2 be3d f2ef 8cbb a409 e13d
000002f0: d0ce 3fbe a69d 98bc f6c3 2fbe f61e 37bd
00000300: 1d45 3cbc 90b9 8d3d bb65 08be cbc1 91bd
00000310: 08ac 6fbd 828f c0bd af2a db3b 03f1 b9bb
00000320: 9ac2 943c 5039 deb8 bfd3 043e 71db debd
00000330: 4e2d 32bd 1393 abbd 15ca 63be 85df 203d
00000340: acb2 d3bc 4a13 3bbc 6b4c f6bd d662 07be
00000350: e650 41bd 45cc d4b9 6bec 6cbd 7524 8fbd
00000360: 6db0 25be f904 70bd 366a e8bd 419c 9e3c
00000370: 9071 d5bd 552c 62bc 3d0a 2c3e c32f 32bd
00000380: 9b0a 08bd ba38 d8bc e65c 813d aece bc3d
00000390: f4df 7bbc 4d91 a6bd aa88 853d bcd0 a6bd
000003a0: c283 a6bc 6c42 a3bd 9de3 0ebc 1217 1bbd
000003b0: e550 a5bd 3e3f e3bd f991 e9bc ef1d 07bd
000003c0: af5c 14be 95cf f6bd 4b36 2abd 958c b1bd
000003d0: f1b5 f73c 4c99 703d b962 ccbd 40b7 953d
000003e0: c788 473d 4cee e43d 0c12 03be 6bef d9bd
000003f0: ed96 953d 73e5 0dbe 9ce8 43bd 4462 673d

network.4.bias f4 [128]
-7.511348e-06 1.0679347e-06 -1.0867371e-05 -1.5491535e-06 9.997319e-06 -2.2991522e-05 1.4828334e-05 2.355015e-05
-8.91343e-06 1.1353256e-05 3.990918e-06 2.711601e-06 2.5968948e-05 -9.770682e-06 6.0389416e-06 -2.4037017e-05
-2.8796405e-06 -4.259859e-06 -2.2319362e-06 1.1196728e-05 9.102864e-06 8.075418e-06 -4.8185157e-06 2.631166e-05
2.1583849e-06 2.0571326e-06 1.0518397e-05 -2.307804e-07 3.092762e-06 1.7242311e-06 -2.7377266e-06 -6.376539e-07
-1.1304452e-05 -5.6356174e-07 2.2385884e-06 8.0067576e-07 -1.2346939e-05 -1.8700877e-05 8.041091e-06 1.0167554e-05
1.0789876e-06 -6.5984977e-06 9.509331e-06 -3.2863509e-06 -6.133618e-06 3.0583269e-07 -4.4091948e-07 7.765739e-07
1.1025702e-05 7.572862e-06 5.4016336e-06 -9.471924e-06 4.2371694e-06 -2.6395696e-06 5.160912e-06 8.819335e-06
5.0998665e-06 5.5175574e-06 -6.842846e-07 -1.3400815e-05 -5.7826414e-06 -1.8706964e-05 7.9205284e-07 1.0367409e-06
6.0587777e-06 8.019671e-06 6.1144237e-06 -5.111625e-06 -1.0243483e-06 6.0802054e-06 6.097016e-06 -2.50365e-06
7.59582e-06 1.2890726e-05 8.903622e-06 -6.371741e-07 -8.4403255e-06 3.1100262e-06 -4.9687233e-06 -2.5436566e-06
1.9054321e-06 4.6554806e-06 -5.817076e-06 1.8244224e-06 -2.3834725e-06 9.671594e-07 1.3014579e-05 8.99e-07
6.08405e-40 -3.7232924e-06 5.35086e-40 -1.0760557e-05 -5.428724e-06 1.1747804e-05 -5.3694685e-06 -2.3405807e-06
1.6965592e-05 2.2416182e-07 3.107053e-06 2.2383513e-06 -5.165442e-06 -1.2917768e-05 -3.8041812e-06 1.3082627e-05
1.3704097e-06 -3.1713394e-06 4.4942763e-06 -2.2383751e-06 3.5945973e-06 -6.2514414e-06 -4.6159703e-06 6.7633664e-07
-8.353911e-06 -4.3828113e-06 -3.4289512e-06 1.2789782e-06 1.3669651e-06 -2.0527164e-06 2.006039e-05 1.3250746e-05
-5.5079204e-06 -1.5188279e-05 -6.8690147e-06 -5.7744437e-06 -1.869043e-05 1.3138479e-06 2.9968505e-06 -1.3172387e-06
00000000: fd09 fcb6 f555 8f35 0153 36b7 82ec cfb5
00000010: 28ba 2737 ebdd c0b7 36c7 7837 908d c537
00000020: e48a 15b7 dd79 3e37 b9e9 8536 f3f8 3536
00000030: e4d7 d937 c2ec 23b7 1da2 ca36 1aa3 c9b7
00000040: d93f 41b6 e9ef 8eb6 5fc8 15b6 95d9 3b37
00000050: 81b8 1837 a87b 0737 bcae a1b6 dcb7 dc37
00000060: c5d8 1036 450d 0a36 2c78 3037 6fcc 77b4
00000070: 3f8d 4f36 216c e735 c9b9 37b6 3e2b 2bb5
00000080: 40a8 3db7 ab47 17b5 a83a 1636 05ee 5635
00000090: b325 4fb7 d4df 9cb7 39e8 0637 5095 2a37
000000a0: bbd1 9035 aa68 ddb6 448a 1f37 148b 5cb6
000000b0: 61cf cdb6 5331 a434 83b7 ecb4 c175 5035
000000c0: 08fb 3837 641a fe36 ae3f b536 9be9 1eb7
000000d0: 022d 8e36 7623 31b6 e62b ad36 c1f6 1337
000000e0: 851f ab36 7523 b936 aeaf 37b5 10d4 60b7
000000f0: 8308 c2b6 e6ec 9cb7 759d 5435 2526 8b35
00000100: 814c cb36 3a8c 0637 802a cd36 8684 abb6
00000110: 577c 89b5 9104 cc36 f894 cc36 6104 28b6
00000120: 99df fe36 3f45 5837 c460 1537 450a 2bb5
00000130: ec9a 0db7 d8b5 5036 02b9 a6b6 b0b3 2ab6
00000140: 26be ff35 4636 9c36 4d30 c3b6 adde f435
00000150: bff3 1fb6 58cf 8135 3159 5a37 cf52 7135
00000160: fc9f 0600 addd 79b6 9ad3 0500 3e88 34b7
00000170: 6228 b6b6 6f18 4537 622b b4b6 df12 1db6
00000180: 5551 8e37 22b1 7034 c482 5036 9536 1636
00000190: cf52 adb6 64b9 58b7 564b 7fb6 757d 5b37
000001a0: ebee b735 32d3 54b6 8acd 9636 fe36 16b6
000001b0: b63a 7136 79c3 d1b6 e2e2 9ab6 808d 3535
000001c0: c627 0cb7 1010 93b6 ef1c 66b6 5ba9 ab35
000001d0: 9078 b735 66c1 09b6 5c47 a837 854f 5e37
000001e0: add0 b8b6 29d1 7eb7 637c e6b6 18c2 c1b6
000001f0: 65c9 9cb7 7857 b035 801d 4936 facb b0b5

network.5.weight f4 [128]
0.513596 0.5054467 0.5527222 0.6680991 0.63899004 0.5022816 0.4898882 0.46978432
0.55953425 0.5302107 0.6693795 0.28737715 0.6487358 0.58444446 0.5016802 0.6546099
0.52842027 0.4110142 0.8264214 0.5534279 0.68164456 0.2902214 0.6230051 0.46641216
0.36371598 0.4456971 0.562383 0.10226957 0.45438135 0.37369648 0.38665622 0.49116603
0.5369913 0.4367406 0.41054738 0.59373236 0.39132747 0.43260238 0.5630528 0.5837618
0.27009043 0.50312227 0.4154869 0.5090605 0.47940814 0.44700602 0.3252016 0.42871705
0.56026757 0.6487465 0.5285915 0.4385208 0.65721136 0.5248014 0.34066138 0.35214815
0.397845 0.4672449 0.4484535 0.48214847 0.51080006 0.8338658 0.50422513 0.486706
0.5930375 0.5212434 0.5757778 0.3774709 0.609057 0.3879525 0.5483647 0.47162676
0.58424014 0.33796075 0.43292677 0.37503204 0.5965936 0.5032426 0.7222311 0.4642049
0.5121757 0.44693226 0.5368545 0.46106228 0.40813175 0.4930866 0.5021931 0.42022142
5.3227e-40 0.49482736 0.002361013 0.4578089 0.5558248 0.5163462 0.38862213 0.38049138
0.5394105 0.22231019 0.64372224 0.4661219 0.4543846 0.41385022 0.42896986 0.5711071
0.3133528 0.37999207 0.33770284 0.6649015 0.3512901 0.5114125 0.51296306 0.6519765
0.56291187 0.52987146 0.6819237 0.2084801 0.52523947 0.54662085 0.37732816 0.5552204
0.50086546 0.31083494 0.50764495 0.4111707 0.424588 0.21075602 0.57698935 0.4224379
00000000: 077b 033f f464 013f 347f 0d3f 8b08 2b3f
00000010: da94 233f 8795 003f a0d2 fa3e 9287 f03e
00000020: a33d 0f3f e3bb 073f 745c 2b3f 1923 933e
00000030: 8d13 263f 279e 153f 1d6e 003f 8494 273f
00000040: 8d46 073f 7470 d23e 5a90 533f 73ad 0d3f
00000050: 4280 2e3f e697 943e 437d 1f3f 93cd ee3e
00000060: fb38 ba3e 6932 e43e 55f8 0f3f b572 d13d
00000070: aca4 e83e 2555 bf3e cef7 c53e 1d7a fb3e
00000080: 4378 093f 779c df3e 4433 d23e d8fe 173f
00000090: 135c c83e 0f7e dd3e 3a24 103f 6a71 153f
000000a0: 4b49 8a3e 9fcc 003f b3ba d43e ca51 023f
000000b0: fc74 f53e f9dd e43e d380 a63e cd80 db3e
000000c0: b26d 0f3f 4014 263f c651 073f cc85 e03e
000000d0: 013f 283f 6259 063f 2b6b ae3e c34c b43e
000000e0: 57b2 cb3e b93a ef3e b29b e53e 2adc f63e
000000f0: cbc3 023f 3b78 553f e614 013f 8731 f93e
00000100: 4ed1 173f 3570 053f 2d66 133f de43 c13e
00000110: 29eb 1b3f b6a1 c63e a161 0c3f 1079 f13e
00000120: c390 153f 3109 ad3e 94a8 dd3e 3304 c03e
00000130: 5cba 183f 82d4 003f 23e4 383f 44ac ed3e
00000140: f21d 033f 4ed4 e43e 4c6f 093f 5b10 ec3e
00000150: a5f6 d03e d975 fc3e ba8f 003f 4327 d73e
00000160: c1cb 0500 035a fd3e 3abb 1a3b ee65 ea3e
00000170: 894a 0e3f 442f 043f 7bf9 c63e c4cf c23e
00000180: ce16 0a3f 48a5 633e fbca 243f 88a7 ee3e
00000190: 19a5 e83e 2de4 d33e f0a1 db3e 1334 123f
000001a0: c76f a03e 528e c23e 63e7 ac3e fc36 2a3f
000001b0: 4cdc b33e eeeb 023f 8c51 033f efe7 263f
000001c0: fe1a 103f a8a5 073f 8d92 2e3f cf7b 553e
000001d0: 1876 063f 58ef 0b3f 2831 c13e ed22 0e3f
000001e0: b838 003f c225 9f3e 05f5 013f f784 d23e
000001f0: 9963 d93e 6dd0 573e 93b5 133f c849 d83e
